data.pth (torch, 8874 bytes, 6 tensors)

l1.weight f4 [8, 111]
000000 27 6c b8 3e 84 48 31 3f 3c e6 5e 3f 47 e1 d3 3e
       0.36020014 0.69251275 0.8707006 0.4138281
000010 ed 16 59 3f 8e c8 84 3e f0 51 2a 3e f3 a2 1d 3e
       0.84800607 0.2593426 0.16632819 0.15394191
000020 ba a1 d5 bc 8a de 81 3e 65 be 6c 3e 35 4c 4e 3e
       -0.026078094 0.25365096 0.23119505 0.20146258
000030 65 ea 82 3f fb 81 02 3f 4c 59 9c 3d 6b 1d 8e 3f
       1.0227782 0.50979584 0.076342195 1.1102728
000040 e6 04 b2 be 7e 1c 60 3b d1 cc 6c 3f 90 ee 34 bc
       -0.34769362 0.003419667 0.92500025 -0.011043206
000050 d7 9f 3a 3e c3 b5 7c be 99 f6 01 bf 89 41 d7 3e
       0.18225037 -0.24678712 -0.50766903 0.42042187
000060 65 68 00 bf 53 06 bc 3e 59 e2 82 bf 29 d5 3f bf
       -0.50159293 0.36723575 -1.0225326 -0.7493463
000070 32 8a 4b bf 81 5c 44 be 68 d2 96 3e 65 90 ec be
       -0.79507744 -0.19175912 0.29457402 -0.46203914
000080 73 63 22 3e 99 16 b3 be 42 a9 85 3d d5 70 f2 3c
       0.1585825 -0.34978178 0.06526424 0.029594818
000090 1b 57 27 bf 04 7a b6 3c 28 d9 c0 be ef a6 44 be
       -0.6536729 0.022274978 -0.37665677 -0.19204305
0000a0 aa 4f 29 3f 7b 88 f7 3e 82 56 c5 be 2b e3 e1 bd
       0.6613718 0.48346314 -0.38542563 -0.11029657
0000b0 11 ff 0a be f9 53 4c bf 1c 8a 8b 3e fe 7a 52 3f
       -0.13573863 -0.7981563 0.27253807 0.8221892
0000c0 bf da da bd 4a f9 85 3f a1 f4 52 bd ff e7 00 bd
       -0.10686254 1.0466702 -0.051502828 -0.03147125
0000d0 60 dd b4 3e fb ec ce 3e fc 79 00 3f fb 02 2f be
       0.35325146 0.40415177 0.50186133 -0.1709098
0000e0 81 b4 3f be 06 d2 9f 3e 18 e4 7a 3e 1a 0c 17 3f
       -0.187212 0.31214923 0.24501073 0.5900284
0000f0 85 da e1 be 6a 12 d7 be d0 b0 19 3f a3 54 7a be
       -0.4411203 -0.42006236 0.6003542 -0.24446349
000100 3e 1b b9 be 0c 37 6f 3e 52 c2 5b bf e7 e4 b2 3e
       -0.36153597 0.23360842 -0.85843384 0.34940264
000110 96 2a a2 3f 09 2f a3 3f 41 20 82 be 3c 88 d4 3d
       1.2669246 1.2748729 -0.25415233 0.10377547
000120 ea 9b 41 3f 42 ac 1e bf 72 3e dd be 0a 85 76 be
       0.7562853 -0.61981595 -0.43211704 -0.24074188
000130 b4 1f 68 3d 68 00 b6 be e0 b4 c0 3f 3d 0a 99 3f
       0.05667086 -0.35547185 1.5055199 1.195625
000140 ac fc 33 3e 32 cf 52 3e 47 30 48 3f f6 e2 01 bf
       0.17576855 0.20586851 0.78198665 -0.5073694
000150 24 f4 54 3f 6d d2 07 be 79 7e 1a 3f 7e 1c 88 be
       0.8318503 -0.13263865 0.6034923 -0.26584238
000160 12 f2 c8 bc 34 3d 37 3f ba f4 bb be 02 7e 6f be
       -0.02452949 0.71577764 -0.3671015 -0.23387912
000170 d0 f3 26 3e 86 36 16 3d 7c e2 11 be c2 0e f0 be
       0.16303945 0.03667309 -0.14246553 -0.4688626
000180 04 a2 a1 3f b3 e1 03 3f 30 12 51 3f a6 40 94 3d
       1.2627568 0.51516265 0.81668377 0.07238893
000190 a8 fe c8 be 7c ea a1 3e 88 99 8e 3e ea 4f d8 3e
       -0.39256787 0.3162421 0.2785151 0.4224847
0001a0 8d 53 5c be dd 6b c7 3e e9 1c f6 be 61 8b fd 3e
       -0.21516247 0.3894948 -0.48068932 0.495204
0001b0 ad c1 d6 3c 3c 97 4b 3f d2 e6 17 3f 05 67 32 3f
       0.026215399 0.7952764 0.5933658 0.69688445
0001c0 98 a8 26 bd 8d 42 f2 3c 0b 2e 6a 3e ed 87 fa 3e
       -0.040688127 0.02957275 0.22869126 0.48931828
0001d0 dd f0 9c be e5 8f 5d bf 93 72 e5 be ed 4d d8 be
       -0.30652514 -0.8654769 -0.44813976 -0.42246953
0001e0 35 80 53 be 36 3c b5 3d 7e 43 26 3e b9 aa 8d 3e
       -0.20654376 0.08849375 0.16236684 0.27669314
0001f0 99 19 4f 3d cd ef 86 3e 90 33 85 bf 4e 2c 60 3f
       0.05056152 0.26354828 -1.0406361 0.87567604
000200 b7 22 e9 3d a2 ff 20 3f db 61 33 3f d6 fa 03 3f
       0.113835745 0.62890065 0.7007119 0.5155462
000210 5c 4f fa 3e 68 25 3b 3f 4a e5 af bf 28 9e b7 3e
       0.4888867 0.7310395 -1.3741848 0.3586285
000220 5a cd b5 3e 77 09 9d bf 80 b7 eb be 7d 27 cd 3c
       0.35508233 -1.2268513 -0.46038437 0.025043244
000230 e8 db 0f 3f ac ec 55 3f b5 40 47 bf 3a 0f a2 3e
       0.56194925 0.8356426 -0.7783311 0.31652242
000240 d3 cc 04 3f 4b 74 f9 be 86 9c 11 3f c4 dd b8 3e
       0.51875037 -0.48721537 0.5687946 0.36106694
000250 83 c2 40 3d d1 60 59 be 39 e3 af 3e 6b 8c 2d bf
       0.0470605 -0.21228339 0.34353045 -0.67792386
000260 a0 98 ae bf 2a 25 eb 3e 1a 81 10 3f 3a 61 07 3f
       -1.3640327 0.4592679 0.56446993 0.5288273
000270 b7 d1 05 3d 03 2b fc 3c 09 f4 24 3f 10 27 48 3f
       0.032670703 0.030782228 0.6443487 0.78184605
000280 b5 07 7f 3e 37 ed 33 3f 15 44 3e 3f 58 f5 4b be
       0.24905284 0.70283836 0.74322635 -0.1991781
000290 ad 3a 0a 3f 1b 9f a5 3f d6 44 00 3f f5 70 73 be
       0.5399578 1.293918 0.50105035 -0.23773558
0002a0 7c 1b 2a 3e 1b dc 43 3f 77 f6 f6 be 0f e7 4b 3f
       0.16612047 0.7650773 -0.48234913 0.7964944
0002b0 77 87 e6 bd 46 b7 58 be 34 be 1f 3f 96 59 87 3f
       -0.112563066 -0.21163663 0.623996 1.0574214
0002c0 82 00 5a 3d f0 9e 3b 3f 0b 7a ad bf f4 5e 80 bf
       0.05322314 0.73289394 -1.355287 -1.0028977
0002d0 71 9e 9c 3f b4 20 b3 3e dd 41 55 3f 9e a9 8c 3f
       1.2235852 0.34985888 0.83303624 1.0989263
0002e0 36 95 75 bd a5 2a cb be e0 f8 06 3e 0d 58 2b 3e
       -0.05995675 -0.39680973 0.13180876 0.16732807
0002f0 0c 3a 84 3e cd 70 df bd 7f 7d f9 be e5 d0 94 be
       0.25825536 -0.10910187 -0.48728558 -0.29065624
000300 14 2d ab be ae 51 43 3f bc 4e f6 bd b9 18 de be
       -0.3343283 0.7629651 -0.12026736 -0.43378237
000310 34 68 8e 3e 66 8e b7 be ec d7 9c bc 07 97 97 3f
       0.27813876 -0.3585083 -0.019145928 1.1842965
000320 63 4b e0 be 72 41 f3 bd af 43 39 be 28 ad e0 be
       -0.43807516 -0.11877717 -0.18092225 -0.43882108
000330 48 77 1e bf a0 c9 11 3f 58 92 41 3f 40 27 69 bf
       -0.6190076 0.5694828 0.7561393 -0.91075516
000340 11 9a 1b bf 4f 26 c4 3e db 56 1b 3f 90 f7 4e bd
       -0.6078196 0.38310477 0.60679406 -0.050529063
000350 e0 7a fa be 3a 55 5b 3d 1b bb 22 be 5f b6 05 bd
       -0.4892187 0.053548075 -0.15891688 -0.032644626
000360 02 ee 13 3e 09 fd 6c 3f c3 85 73 3e de 4b 9f be
       0.14446262 0.925736 0.23781495 -0.3111257
000370 df d1 03 3f 95 ff 76 3e dc b9 38 3f 31 31 5f 3f
       0.5149211 0.24120934 0.721586 0.87184435
000380 ec 4e 0f bd 4c 7a 30 3c 6f d2 45 be 75 60 7b 3e
       -0.034987375 0.010771345 -0.19318555 0.24548514
000390 6d c2 ea 3e fb 47 80 3e 2b 90 d5 3c 8b e4 69 3e
       0.4585146 0.25054917 0.026069721 0.22841088
0003a0 d9 87 a6 be 82 1f 34 3e 31 6d 5c bf 2f bc 15 bf
       -0.3252552 0.17590144 -0.8610411 -0.5849027
0003b0 c5 ec 93 be 50 9b 47 bf 64 2e d6 3e 8b 7a cd bd
       -0.28891578 -0.77971363 0.41832268 -0.10033139
0003c0 3e eb 5e bf 94 c5 07 3f b9 e0 db be cf 6b 72 3f
       -0.870777 0.53035855 -0.42944887 0.9469575
0003d0 1a e0 c6 3e 4e 3e 79 3f 06 c5 0d 3e 4d e8 8d be
       0.3884285 0.97360694 0.1384469 -0.27716294
0003e0 83 23 1e 3f a1 ab d1 bc b4 60 5c bf 89 a9 be be
       0.61772937 -0.025594534 -0.8608506 -0.3723872
0003f0 39 3e b9 3d a7 ce 38 3f 57 dd b3 3e f0 58 1a 3e
       0.09045071 0.72190326 0.35129806 0.1507299

l1.bias f4 [8]
000000 c0 3a 85 3f 40 90 5d 3f db 22 5c 3f 8b cb 4d 3f
       1.0408554 0.86548233 0.85990685 0.80388707
000010 bb 9c 28 3f b9 3a 5e 3f 47 6a 8d 3f aa 43 18 3f
       0.6586415 0.86808354 1.1048058 0.5947825

l2.weight f4 [8, 8]
000000 94 f1 2a 3f 67 22 4a 3e e1 10 a0 bf b0 a2 ea 3e
       0.6677487 0.19739686 -1.2505151 0.45827246
000010 32 34 47 bf ad dc 6a 3f ac 55 ff 3f e8 8e 84 bf
       -0.7781402 0.91742975 1.994802 -1.0356112
000020 50 aa 5d be 84 6c 84 be ee 61 d9 bc 54 1b c7 bd
       -0.21647 -0.2586404 -0.026535954 -0.09722009
000030 2e 20 3d bd 33 85 93 3e 02 e2 9a be d0 81 4c be
       -0.046173267 0.2881256 -0.30250555 -0.19971395
000040 13 85 34 bf 7d 8f 96 3f 5e 59 e3 3f 10 7a 7b 3f
       -0.70515555 1.1762539 1.7761648 0.9823313
000050 46 64 81 3e 66 b0 9d bf c8 88 03 40 c8 1f 0d bf
       0.25271815 -1.2319458 2.0552235 -0.5512662
000060 74 1f 5d bf a9 74 01 3f ca 62 32 bf 8b 85 77 3c
       -0.8637612 0.50568634 -0.6968199 0.015107523
000070 eb 1f d2 3f 71 30 ec 3f c0 f9 bd 3f 77 de 8a bf
       1.641599 1.8452283 1.4841843 -1.0849141
000080 17 75 c6 3f 04 32 a5 bf 02 fb ed be f5 2e d1 3f
       1.5504483 -1.2905889 -0.46480566 1.6342455
000090 f2 0c d0 bf 1e 5f 5d 3f cd 67 8a 3e 46 ce 15 3f
       -1.625395 0.8647326 0.2703232 0.58517873
0000a0 ea fe 00 40 9e 3b 12 40 ee f0 71 3f d9 81 c4 bf
       2.0155587 2.2848887 0.94508255 -1.5352126
0000b0 f4 b0 ca 3f 26 52 21 3f 28 6b 43 be 57 bd ea 3f
       1.5835252 0.63015974 -0.19083846 1.8339032
0000c0 1f 40 d6 3e 03 c1 08 bf 3e 5d 12 40 c4 b3 4b 3f
       0.41845796 -0.5341951 2.286941 0.79571176
0000d0 c1 5a 56 3f f8 01 12 3e d3 10 af 3e ad 2b 92 bf
       0.8373223 0.14258564 0.34192523 -1.1419579
0000e0 e7 55 bf 3f 4c 63 4d bf 63 e8 8d 3f 5f ef dc 3f
       1.494809 -0.8022964 1.1086544 1.726055
0000f0 8c e2 8a be 01 3e e1 3f a9 21 3d bf 15 11 0a 3f
       -0.27125967 1.7597047 -0.73879486 0.53932315

l2.bias f4 [8]
000000 11 a6 93 3f f0 60 a6 be d8 37 41 3f a5 39 54 be
       1.1535054 -0.32495832 0.75475836 -0.20725115
000010 7f 46 32 3f ed fe de 3e 5f 95 26 bf d5 34 0d 3f
       0.6963882 0.43553868 -0.6507167 0.5515874

l3.weight f4 [24, 8]
000000 0b 8c ab 3e c6 d9 24 3e 46 ce 01 c0 e2 f0 25 c0
       0.33505282 0.16098699 -2.028215 -2.5928273
000010 f5 e4 3b 3f dd ac 84 be 69 bb 46 c0 9a 8c 22 3f
       0.73396236 -0.25913134 -3.1051886 0.6349579
000020 02 7a 2a bf 39 f8 74 3e 20 8a 02 3f 12 c5 cf 3e
       -0.6659242 0.23922814 0.5099201 0.4058004
000030 1b 86 34 c0 8c 01 b8 3d e7 e0 a3 bb b7 4f d3 bf
       -2.8206851 0.0898467 -0.0050011757 -1.6508702
000040 10 3f 2c 3f 1c 0b 46 be a0 9d c5 be 24 12 22 3f
       0.67283726 -0.19340175 -0.3859682 0.6330893
000050 62 71 3d be 76 f6 10 c0 75 85 80 be a6 20 75 be
       -0.18500283 -2.2650428 -0.2510182 -0.23938236
000060 ab b5 05 3f 94 f1 b3 3e 27 d6 09 3f 24 ba 18 c0
       0.5223033 0.35145247 0.53842396 -2.3863611
000070 15 27 bc 3e 44 21 4a bf b0 ac cc bf e3 74 06 3e
       0.36748567 -0.7895701 -1.59902 0.13130526
000080 a5 d2 89 3f 1d df 89 bd 83 e9 48 3f ec 7a 83 3d
       1.0767409 -0.067320086 0.7848131 0.0641993
000090 12 4c 01 be 87 c3 9d bf 9b 35 d2 bf b8 09 bf bf
       -0.12626675 -1.2325295 -1.6422609 -1.4924841
0000a0 5b 6d 8b be f9 1b 21 be 68 9c 82 3f 53 4b 5f bf
       -0.2723187 -0.15733327 1.0203981 -0.8722431
0000b0 8c 11 8e bf e3 b5 2a bf 1e 0a cf 3e 25 8d 84 bd
       -1.1099105 -0.6668379 0.40437406 -0.06472234
0000c0 7b 6c a3 bf fb 3a 26 be bf 65 cc be 74 b7 38 3f
       -1.2767481 -0.16233437 -0.39921376 0.7215493
0000d0 25 fe 05 c0 65 62 02 3f 38 eb 48 bf 65 a4 89 bf
       -2.0936368 0.5093139 -0.78483915 -1.0753294
0000e0 e3 75 26 3f 97 5e 8d 3d ea 46 03 bf 29 f3 61 3f
       0.6502363 0.06902807 -0.5128008 0.8826166
0000f0 4a bf 12 c0 8f ad a8 be 9d f1 6a bf 0f b1 08 bf
       -2.2929254 -0.32944915 -0.9177492 -0.5339517
000100 57 cb 1d 3e 76 41 82 3e 0f 8f 4e 3f 59 53 d5 3e
       0.15409599 0.25440568 0.8068704 0.41665152
000110 fb 8e 7d c0 1a 4a 57 bf 00 c7 2d be 1a ff 2b be
       -3.9618518 -0.84097445 -0.16970444 -0.16796532
000120 60 aa db bf ef 54 db bd 4d 13 22 be e7 ba bc bf
       -1.7161369 -0.10709559 -0.15827675 -1.4744538
000130 3c 2b 05 c0 4b cf 4d 3f 88 7e 10 3e 49 f8 de 3e
       -2.0807638 0.8039443 0.14110768 0.43548802
000140 b7 00 13 3f c8 61 25 3e 10 47 2b 3f ee bc 5b 3e
       0.57422966 0.16150582 0.6690531 0.2145879
000150 a7 e7 1f c0 85 9a a0 3e 5e fe 2f c0 b9 0b 0d c0
       -2.498514 0.3136789 -2.7499003 -2.2038405
000160 33 6f b0 bf 3b 5d 6c 3e db cb 88 3e 36 b8 be 3e
       -1.3783935 0.2308244 0.2671803 0.37249917
000170 85 8d 26 c0 84 99 da be 65 46 12 3f 1a eb 8d 3e
       -2.6023877 -0.42695248 0.57138664 0.2771843
000180 ad c7 30 c0 99 b0 1b 3e dc 66 c5 3e 89 58 76 be
       -2.7621872 0.15204085 0.38555038 -0.24057211
000190 e7 e4 26 c0 af b7 23 3f 8a a1 da bd 0b d8 86 bf
       -2.607721 0.63952154 -0.106753424 -1.0534681
0001a0 04 7b 46 3f 3d c1 cf 3d 7c 4a de bf 2f 64 4b be
       0.77531457 0.10144279 -1.7366481 -0.19862436
0001b0 f3 dd b9 be d4 8e bf 3e 86 b7 c6 bf b9 4e 80 bd
       -0.36302146 0.37413657 -1.5524757 -0.06265015
0001c0 b2 f4 f5 3e 3a 43 b6 be 2a b1 9e be b2 9f 5b 3e
       0.4803825 -0.35598165 -0.3099454 0.21447638
0001d0 46 ff c0 be eb 45 18 bf 3b d8 8a be 69 17 8f bb
       -0.37694758 -0.59481686 -0.27118096 -0.0043668044
0001e0 dd a7 8b bf 23 77 88 bd d1 e3 7c bf e2 d6 22 c0
       -1.0910603 -0.066633485 -0.9878512 -2.5443654
0001f0 df 00 87 be 93 39 09 3f 13 b5 17 bf 32 60 32 3f
       -0.26367852 0.53603476 -0.5926067 0.6967803
000200 ef 7c e4 3e de a5 82 be b5 1b a1 bf 6e 79 02 3e
       0.44626567 -0.25517172 -1.258658 0.12741634
000210 0c e4 62 3e c5 a6 e3 bf f3 4a a4 3d b1 67 c0 3e
       0.22157305 -1.7785269 0.08022108 0.3757911
000220 d4 37 c7 3e c6 d0 7e be ce 5a 1e c0 a5 1e c3 bd
       0.3890978 -0.24884328 -2.4742923 -0.09527329
000230 ef cb b1 3e 17 35 3a bf cb f3 32 be 3e a9 92 3e
       0.347259 -0.7273726 -0.17475812 0.28644747
000240 e0 d9 44 be cf f6 92 3e 19 af 7e 3e fe 56 97 3e
       -0.19223738 0.28703925 0.24871482 0.29558557
000250 a9 00 4f bf 01 c5 10 c0 f7 6c 7c 3f 7e 1a 61 3e
       -0.8086038 -2.2620242 0.9860377 0.21982762
000260 de 75 21 c0 dd 32 7a 3d 92 ff d1 be 5f 6c 86 3e
       -2.522819 0.061083663 -0.41015297 0.26254556
000270 d3 52 1a c0 f5 ac af 3e 4f 28 91 3e a3 7b 06 bd
       -2.4113052 0.34311643 0.28351066 -0.032832753
000280 bb 7d 1a 3e ee ae c5 bd 99 b3 22 bf cc 63 1a c0
       0.15087025 -0.09652506 -0.63555294 -2.412341
000290 a6 ef e9 3d 28 52 d5 be e5 d6 3f 3f 07 0e bf 3e
       0.114226624 -0.41664243 0.7493728 0.3731539
0002a0 cc 54 33 3d 4d d1 17 3e 08 54 25 be db 1f 93 bd
       0.04378204 0.14825936 -0.16145337 -0.0718381
0002b0 a0 12 f7 bf 07 af 89 3e df e2 8c be 02 d5 51 3d
       -1.9302559 0.26891348 -0.2751684 0.05122853
0002c0 49 7d 20 c0 ec 45 63 be 1e 07 1b 3f c2 76 99 3d
       -2.5076468 -0.22194642 0.60557735 0.074933544
0002d0 c0 f7 ba bf de 66 02 3e 31 7d 39 3f 65 95 2e c0
       -1.4606857 0.12734553 0.7245665 -2.7278683
0002e0 c5 fa c0 bf 07 c7 9f be 84 d5 48 bf 24 bc 86 3e
       -1.5076529 -0.31206533 -0.784508 0.26315415
0002f0 49 a7 a9 be d6 d1 f7 bd 81 dc 66 3e 62 ed 1b 3f
       -0.3313544 -0.1210057 0.22545053 0.6090909

l3.bias f4 [24]
000000 27 64 33 3f d0 22 e4 be 7a 6c e0 be d0 41 15 3f
       0.70074695 -0.4455781 -0.4383276 0.58303547
000010 8f 27 17 3f ea fa aa 3e d8 3c 29 3d 86 eb 9e 3d
       0.59044737 0.33394557 0.04131779 0.07759766
000020 32 5f df 3e d5 4b fe 3e 0d 19 c1 3d 7b bc 32 bf
       0.43627316 0.4966723 0.09428606 -0.6981885
000030 09 03 53 be 96 fc 18 be ac 8a ef be d0 60 9f 3d
       -0.20606627 -0.14940104 -0.46785486 0.077821374
000040 93 e5 3b be 26 14 91 bd 2d 39 85 3c e1 09 34 bf
       -0.18349294 -0.07083921 0.016262615 -0.70327574
000050 ce 05 9b be 49 54 e2 be 3e 88 cd be 2c 99 b4 3c
       -0.30277866 -0.4420493 -0.40143007 0.022045694
